AI_Car.onnx (onnx, 108607 bytes, 11 tensors)

network_body.observation_encoder.processors.0.normalizer.running_mean f4 [35]
0	0x3e02e557	0.12782799
1	0x3db220e9	0.08697683
2	0x3f387eaf	0.72068304
3	0x3d841d47	0.06450897
4	0x3efb574d	0.49090043
5	0x3de0f820	0.10984826
6	0x3d9bd84b	0.07609614
7	0x3e8a2a06	0.26985186
8	0x3f0b50e7	0.5442032
9	0x3f1f16b7	0.62144035
10	0x3e0455d4	0.12923366
11	0x3db5510b	0.08853348
12	0x3f483f88	0.7822194
13	0x376c5ef4	1.4088804e-05
14	0x3efb379a	0.49065858
15	0x3baf223f	0.0053446586
16	0x3bf2a06b	0.007404377
17	0x3f46e2e3	0.7768995
18	0x3e5765cd	0.21034928
19	0x3e655128	0.2239424
20	0x3df47c7e	0.119378075
21	0x3da2f89d	0.079575755
22	0x3f4d1165	0.80104667
23	0x00000000	0.0
24	0x3edbe2a5	0.42946354
25	0x379c4f6a	1.863363e-05
26	0x3ae61d94	0.0017556422
27	0x3f7f72a0	0.9978428
28	0x39d31d4f	0.00040266893
29	0x3cf5e115	0.030014554
30	0x3db96660	0.090527296
31	0x3d53990f	0.05165964
32	0x3f5b99d3	0.8578159
33	0x00000000	0.0
34	0x3ebfb55d	0.37443057

network_body.observation_encoder.processors.1.normalizer.running_mean f4 [32]
0	0x3f4ff39f	0.8123111
1	0x3e7cadb5	0.24675639
2	0xbe6887e1	-0.22708084
3	0xc0386b78	-2.8815594
4	0xbef91731	-0.48650506
5	0x3cca1a78	0.024670824
6	0x3efb92ec	0.4913553
7	0x3f392d86	0.7233509
8	0x3ef285dd	0.47367755
9	0x40abf20c	5.3732967
10	0xbd4e2500	-0.050328255
11	0x3ef285dd	0.47367755
12	0x3f26bbdc	0.651304
13	0xbd4e2500	-0.050328255
14	0x3ef285dd	0.47367755
15	0x3f26bbdc	0.651304
16	0x3f52ab8e	0.8229302
17	0x3e8005cd	0.25004426
18	0xbe3fcd33	-0.18730621
19	0xc03ae09c	-2.919959
20	0xbefc69b4	-0.49299395
21	0x3ccccc0c	0.02499964
22	0x3eff7cae	0.4989981
23	0x3f3ba539	0.73298985
24	0x3ef5c1c6	0.479994
25	0x40ae3cd1	5.444924
26	0xbd50e4a9	-0.050999317
27	0x3ef5c1c6	0.479994
28	0x3f28f525	0.6599906
29	0xbd50e4a9	-0.050999317
30	0x3ef5c1c6	0.479994
31	0x3f28f525	0.6599906

network_body._body_endoder.seq_layers.0.weight f4 [128, 67]
0	0xbe7f8c6e	-0.24955913
1	0xbe044f2a	-0.12920824
2	0x3d21551e	0.039387815
3	0xbe4f163f	-0.2022333
4	0xbcf90527	-0.030397965
5	0x3e7b23e1	0.24525405
6	0x3da3e6af	0.08002984
7	0x3e21c676	0.15798363
8	0xbdc0c496	-0.09412496
9	0xbe8e492c	-0.277902
10	0xbe4d9420	-0.20076036
11	0x3d5fd1e7	0.054643538
12	0xbd5ffda7	-0.05468526
13	0xbdc5ec3f	-0.09664201
14	0x3e0bacd6	0.1364015
15	0xbe0b97d2	-0.13632134
16	0x3e937e43	0.28807268
17	0xbe23e251	-0.16004302
18	0xbc3d4f8f	-0.011554613
19	0xbd524156	-0.05133184
20	0x3d07fc20	0.03319943
21	0xbe1e54d8	-0.15462053
22	0x3da44d37	0.0802254
23	0xbdda277f	-0.106520645
24	0xbe01ae7f	-0.12664221
25	0xbd524ace	-0.05134087
26	0xbb9b74b5	-0.004744137
27	0x3ccf20f6	0.025284272
28	0xbdc7d91e	-0.09758209
29	0xbe560990	-0.20902085
30	0xbdad5b1f	-0.084646456
31	0x3d21c050	0.039490044
32	0x3d3b1920	0.045678258
33	0x3e5d1120	0.21588564
34	0xbd1e803f	-0.038696524
35	0x3e496af4	0.19669706
36	0xbe27276a	-0.16323629
37	0x3d089e40	0.033354044
38	0x3b6bd6b4	0.0035986127
39	0xbe10d9d4	-0.14145595
40	0x3c7f9ab8	0.015600853
41	0xbe05f8e2	-0.13083223
42	0xbe09f03d	-0.1347055
43	0xbd558f1f	-0.052138444
44	0xbe05f20d	-0.13080616
45	0x3e959e66	0.2922241
46	0x3dfa50a8	0.12222415
47	0x3d73550e	0.059407286
48	0xbe461388	-0.19343388
49	0xbcab5764	-0.020915695
50	0xbd024397	-0.03180274
51	0xbdd2704f	-0.102753274
52	0xbdc2ec27	-0.09517699
53	0xbe4ef0ec	-0.20209092
54	0xbe45f096	-0.19330058
55	0xbdc2df64	-0.09515265
56	0x3de7dee6	0.113218114
57	0xbde14f9a	-0.11001511
58	0x3d3d59d3	0.04622824
59	0xbd903ce1	-0.07042862
60	0x3d89ebb0	0.06734407
61	0xbdd989ca	-0.10621984
62	0x3de27d3d	0.110590436
63	0x3d2f4240	0.04278779
64	0x3e1167d8	0.1419977
65	0x3e533139	0.20624246
66	0xbc667058	-0.014064871
67	0x3d18e707	0.0373297
68	0xbe107eb1	-0.14110829
69	0xbe264d92	-0.16240528
70	0x3dd31cab	0.10308202
71	0x3e1916e2	0.14950135
72	0xbcfc71e9	-0.030816035
73	0x3bf20131	0.007385396
74	0x3e9e606e	0.30932945
75	0x3defb1a5	0.11703805
76	0xbe3326d7	-0.17495285
77	0xbd745926	-0.05965533
78	0xbe1388e5	-0.1440769
79	0xbb887ad1	-0.0041650315
80	0xbe4f9fe0	-0.20275831
81	0xbd820449	-0.063484736
82	0x3d4ec46b	0.050480288
83	0xbd88f41b	-0.066871844
84	0x3e85cbf3	0.26132163
85	0x3ddab93c	0.10679862
86	0x3db59f55	0.08868281
87	0x3ce31bf6	0.027723294
88	0x3b536703	0.0032257445
89	0xbdc54aac	-0.09633383
90	0x3d9865d0	0.07441294
91	0xbe10b6a2	-0.14132169
92	0xbda5af17	-0.08090036
93	0xbdabff26	-0.08398275
94	0xbd751940	-0.059838533
95	0xbe87b765	-0.26507106
96	0x3e4c2b97	0.19938503
97	0xbd2678fb	-0.04064272
98	0x3cd6c359	0.026216196
99	0x3cbf9004	0.023384102
100	0xbdfaa570	-0.12238586
101	0xbe6c03d3	-0.23048334
102	0x3e487490	0.19575715
103	0x3de4a843	0.11164906
104	0xbe1c6c62	-0.1527572
105	0xbe15e9cb	-0.14639966
106	0xbd9a2eac	-0.07528433
107	0xbcdd9a9c	-0.027051263
108	0x3de18091	0.1101085
109	0x3cdcd3ea	0.026956517
110	0xbe1ef7a1	-0.1552415
111	0x3e13e7cd	0.14443894
112	0x3e685bc2	0.22691253
113	0x3dfa9f1e	0.122373804
114	0x3d1c6f57	0.03819212
115	0x3bfeb044	0.0077724773
116	0xbd8b1c8b	-0.067925535
117	0x3ea1960d	0.31559792
118	0x3c6a475f	0.014299243
119	0xbe33c67a	-0.17556182
120	0xbd063104	-0.03276159
121	0xbd422620	-0.04739964
122	0x3e63bbab	0.22239558
123	0x3d58f525	0.052968163
124	0xbd901d91	-0.07036889
125	0xbda7c630	-0.08192098
126	0x3e0cb2d3	0.13740091
127	0xbd86bf21	-0.06579424
128	0xbd974013	-0.07385268
129	0x3acbcc35	0.0015548529
130	0x3dfc9090	0.123322606
131	0x3d5b60b4	0.05355902
132	0xbe7eae2a	-0.24871126
133	0x3e3b4160	0.18286657
134	0x3c678bca	0.014132449
135	0x3dc82a03	0.09773638
136	0xbe1720cd	-0.14758606
137	0x3cf5c39a	0.030000497
138	0xbbddae7e	-0.006765186
139	0xbd848405	-0.06470493
140	0x3df089e8	0.117450535
141	0x3df872c9	0.121312685
142	0x3c2767c8	0.0102176145
143	0x3e14ac16	0.1451877
144	0x3dd4b006	0.10385136
145	0xbd4a5d4c	-0.04940538
146	0xbdbb2f0f	-0.09139835
147	0xbe41edc6	-0.1893836
148	0xbb5c1312	-0.0033580703
149	0x3db85862	0.09001233
150	0xbe8d8f19	-0.27648237
151	0xbdac01c6	-0.08398776
152	0x3e11eb65	0.14249952
153	0xbe0ef6cd	-0.13961335
154	0xbd85056d	-0.064951755
155	0x3cd84f60	0.026405036
156	0x3d062141	0.032746557
157	0x3db31a72	0.087452784
158	0x3bfd3cc4	0.007728191
159	0x3dce59e3	0.10075738
160	0x3e559424	0.20857292
161	0xbe282cd5	-0.16423352
162	0x3df2e899	0.11860771
163	0x3e0dc74b	0.13845555
164	0x3e58aa4d	0.21158715
165	0x3db51a0d	0.088428594
166	0xbdaba785	-0.08381561
167	0xbd163616	-0.036672674
168	0xbe877ef8	-0.26464057
169	0xbe22ba25	-0.15891321
170	0xbe226690	-0.15859437
171	0x3b757c35	0.0037458066
172	0x3e2afcbd	0.16697975
173	0x3e1d2ede	0.1534991
174	0xbdbce719	-0.09223766
175	0xbd6fad41	-0.058514837
176	0x3de4f130	0.11178815
177	0xbeaf1fc5	-0.34203926
178	0xbe35fec9	-0.17772974
179	0xbd0e2e2f	-0.034712013
180	0x3e0dea37	0.13858877
181	0x3e69df0e	0.22838995
182	0xbcc6c3b6	-0.024263244
183	0x3d459863	0.04824103
184	0x3c5e9afc	0.013586756
185	0x3c51ac2a	0.012797395
186	0xbe126403	-0.14295964
187	0x3e058225	0.13037927
188	0x3bd57186	0.006513777
189	0x3bc815b3	0.0061061024
190	0x3dc460b6	0.09588759
191	0x3dcf78de	0.101304755
192	0xbdb0daa9	-0.08635456
193	0xbdcc0ff3	-0.099639796
194	0x3e165649	0.14681353
195	0xbd758aea	-0.059946932
196	0xbdb83aa2	-0.08995558
197	0xbda4da1f	-0.08049416
198	0xbd8b3dd9	-0.06798906
199	0xbd93f195	-0.072238125
200	0x3e0e6ace	0.1390793
201	0x3e28246b	0.16420142
202	0x3b6726f5	0.0035271023
203	0x3d880512	0.06641592
204	0x3e49ddd1	0.19713522
205	0xbd230733	-0.039801788
206	0x3e08d13e	0.1336107
207	0x3cabecd6	0.020986956
208	0xbe083f84	-0.1330548
209	0xbdfb5ba2	-0.12273337
210	0x3db0bc7b	0.086297
211	0xbac1137b	-0.0014730537
212	0x3ca5d0d2	0.020241175
213	0x3d47d974	0.048791364
214	0x3d6244aa	0.055241264
215	0x3d35e31d	0.044406045
216	0xbdb2fc8f	-0.08739578
217	0x3d57e87a	0.05271194
218	0x3e69f495	0.22847207
219	0xbde1eb49	-0.11031205
220	0x3d81371b	0.06309339
221	0x3e459adb	0.19297354
222	0x3e2a371e	0.16622588
223	0xbdb2f17a	-0.08737464
224	0xbdda12f0	-0.10648143
225	0x3ea84e07	0.3287203
226	0x3e05b8da	0.13058797
227	0x3ccfcef8	0.025367245
228	0xbd7976e5	-0.060904402
229	0xbde56d68	-0.11202508
230	0xbed86321	-0.4226313
231	0x3cc16113	0.023605859
232	0x3e672cdf	0.2257571
233	0x3cf29848	0.029613629
234	0xbd08e810	-0.033424437
235	0xbd1b41dd	-0.03790461
236	0xbdf310eb	-0.11868461
237	0xbc7916fb	-0.015203233
238	0xbe6c5aef	-0.23081563
239	0xbe2f154c	-0.17097968
240	0x3d98f545	0.074686565
241	0xbc6a985b	-0.014318551
242	0x3c6d7d61	0.014495225
243	0x3d632b84	0.05546142
244	0xbd83f44c	-0.0644308
245	0xbd9d3c1b	-0.0767748
246	0xbded3e5f	-0.11584162
247	0x3e120bf8	0.14262378
248	0xbe8e274d	-0.2776436
249	0xbd4b1827	-0.04958358
250	0x3c92c9fb	0.017918577
251	0x3d044f4d	0.03230219
252	0x3d9f0d0a	0.07766159
253	0xbe6dfbe0	-0.23240614
254	0xbd2a4144	-0.04156615
255	0xbdd7a543	-0.10529568

network_body._body_endoder.seq_layers.0.bias f4 [128]
0	0x3d190d3a	0.03736613
1	0xbae2a4c8	-0.001729154
2	0xbce7c018	-0.02828984
3	0xbd842d0c	-0.064539045
4	0xbd51a14e	-0.051179223
5	0xbc3c7833	-0.011503267
6	0x3d5b1740	0.05348897
7	0x3a85e18e	0.0010214315
8	0xbd91bcc8	-0.07116085
9	0x3b5b359c	0.0033448702
10	0xbd38016c	-0.04492323
11	0xbdee1075	-0.11624233
12	0xbbe29c2b	-0.0069155893
13	0x3d4be1d6	0.04977592
14	0x3c01d32f	0.007923885
15	0xbcf88622	-0.030337397
16	0xbc666b79	-0.014063709
17	0x39926ae2	0.00027926924
18	0x3cb37cd9	0.021910118
19	0x3d5c1a74	0.053736165
20	0xbd2ee4a8	-0.042698532
21	0xbcff172d	-0.03113898
22	0x3b5a46a1	0.0033306258
23	0xbd5a62d4	-0.053316906
24	0x3d873d3f	0.06603479
25	0xbd054626	-0.032537602
26	0x3b950bfa	0.004548547
27	0xbd903d9d	-0.07043002
28	0x3b36f37e	0.0027916129
29	0x3c93c7d1	0.018039616
30	0x3d042c7a	0.03226898
31	0x3c0068d6	0.007837495
32	0xbd5bdcc2	-0.053677328
33	0xbcd2f53a	-0.025751699
34	0x3de94cea	0.11391623
35	0x3d2b06dd	0.041754592
36	0xbc1db3d0	-0.00962539
37	0x3c5e8483	0.013581398
38	0xbc2ccf9f	-0.010547548
39	0xbbff7bc5	-0.007796737
40	0x3be397b5	0.006945575
41	0xbd37943d	-0.044819105
42	0x3a8d956a	0.0010801975
43	0x3dc3dab1	0.095631965
44	0xbb50ebb0	-0.0031878762
45	0xbd97bae2	-0.07408692
46	0xbd353797	-0.044242468
47	0x3d8c794d	0.06859074
48	0x3d4449eb	0.047922056
49	0xbcd1f0f7	-0.025627596
50	0xbcd48f5d	-0.025947267
51	0x3d69de11	0.057096545
52	0x3c281d4a	0.010260889
53	0xbce061a2	-0.027390305
54	0x3d490b9e	0.049083345
55	0xbd6a1db2	-0.057157226
56	0x3d8bff9d	0.06835864
57	0x3de466e0	0.11152434
58	0x3dc54035	0.09631387
59	0x3d4a283c	0.049354777
60	0xbcc76f26	-0.024344992
61	0x3d2503b7	0.040286746
62	0x3d350558	0.04419455
63	0x3cc43e45	0.023955474
64	0xbc181fa6	-0.009284889
65	0x3cb732c9	0.022363083
66	0xbc943c11	-0.018095048
67	0x3d701c67	0.058620837
68	0xbc3df7a1	-0.011594684
69	0x3cddd69f	0.027079878
70	0x3cdf25fc	0.027239792
71	0x3cb9df33	0.022689437
72	0xbcb7bdfe	-0.022429463
73	0xbd962922	-0.07332064
74	0xbdbe23b2	-0.09284152
75	0x3cf28ac6	0.029607188
76	0xbcbdbc0e	-0.02316096
77	0xbd12080d	-0.03565221
78	0x3bb1ab63	0.005422042
79	0x3cefc2df	0.029267726
80	0x3cea9a8e	0.02863815
81	0xbb9e3830	-0.0048284754
82	0x3d8e9609	0.06962211
83	0x3d3ea888	0.046547443
84	0xbbd3ec0e	-0.006467349
85	0x3bc380ee	0.0059662974
86	0x3d078781	0.03308821
87	0x3d9cf628	0.07664138
88	0x3d186890	0.037209094
89	0xbd2eb209	-0.042650256
90	0x3ca2f558	0.01989238
91	0xbdf99e66	-0.12188415
92	0x3c2109f8	0.009829037
93	0x3cda75d9	0.026667522
94	0xbd2c8e5d	-0.042127956
95	0xba2ded9b	-0.0006634832
96	0x3d274ace	0.040842824
97	0x3bccec33	0.006253743
98	0x3cb223c0	0.021745563
99	0xbdd23f1e	-0.10265945
100	0xbd3fb247	-0.046800878
101	0xbd460bd8	-0.04835114
102	0xbd8748c9	-0.066056795
103	0x3b919024	0.0044422317
104	0xbd5968fc	-0.053078637
105	0x3d85c9d3	0.065326355
106	0x3b9c13f1	0.0047631194
107	0x3bbecd1c	0.005822791
108	0x3c9ba68f	0.01900032
109	0xbd0cdee6	-0.03439226
110	0x3d81e89a	0.06343193
111	0x3d3698fd	0.044579495
112	0xbd1fbddb	-0.03899942
113	0x3d3f92a6	0.046770714
114	0xbd9cd4d7	-0.076577835
115	0xbbd3caea	-0.006463398
116	0x3db031e1	0.08603264
117	0x3ce95249	0.02848162
118	0xbd3e64f7	-0.046483006
119	0xbc1302d9	-0.008972847
120	0x3c6cc2d9	0.014450752
121	0x3c350e03	0.011050704
122	0xbcffb715	-0.03121523
123	0xbd70e49e	-0.058811776
124	0x3bce417e	0.0062944284
125	0xbd2a4037	-0.041565146
126	0x3d752c19	0.059856508
127	0xbd439055	-0.047745068

network_body._body_endoder.seq_layers.2.weight f4 [128, 128]
0	0x3c3896cf	0.011266424
1	0x3dad2b74	0.08455554
2	0x3d75402c	0.059875652
3	0x3de6751e	0.11252807
4	0x3de4d186	0.11172776
5	0x3d6e7129	0.058213387
6	0x3e501313	0.20319776
7	0xbe0fe04b	-0.14050405
8	0x3d8288c8	0.06373745
9	0xbd921ae2	-0.07134034
10	0x3dba3ba1	0.090934046
11	0xbd5d5f4e	-0.054045968
12	0xbdadf062	-0.08493115
13	0x3caf6933	0.021412468
14	0xbd90742f	-0.0705341
15	0xbe0caf4d	-0.13738747
16	0x3d05f837	0.03270742
17	0xbe2d3f2e	-0.16918632
18	0xbe58f842	-0.21188453
19	0xbda20157	-0.07910412
20	0xbdb010e2	-0.0859697
21	0xbe70a689	-0.23501028
22	0xbc1fadc0	-0.009746015
23	0x3d97962f	0.07401692
24	0xbd23709c	-0.039902315
25	0xbccc62b4	-0.024949409
26	0x3bfedcb2	0.007777774
27	0xbdc2ba9d	-0.0950825
28	0xbdabf1e7	-0.083957486
29	0x3d565053	0.052322697
30	0x3d9587ac	0.07301268
31	0xbd04aff1	-0.032394353
32	0xbbc6e3ca	-0.006069635
33	0x3e0e5d0f	0.13902687
34	0x3cbeb7c5	0.023280988
35	0xbdadb609	-0.08481986
36	0xbdccdc2a	-0.100029305
37	0xbdb0ef82	-0.086394325
38	0x3d258153	0.040406536
39	0xbc74ecb0	-0.014949009
40	0xbe130cb3	-0.14360313
41	0xbd2ab700	-0.04167843
42	0xbe2cd309	-0.16877379
43	0x3c9e15ac	0.019297443
44	0xbd102284	-0.035189167
45	0xbdeca8ae	-0.115556106
46	0xbd72ab9f	-0.059245702
47	0x3e83fa56	0.2577693
48	0xbcfec474	-0.031099536
49	0xbdbee549	-0.093210764
50	0xbcd68c07	-0.026189817
51	0xbd925fca	-0.071471766
52	0xbdeb62c7	-0.1149345
53	0xbdbe8637	-0.09302943
54	0xbe06abf0	-0.13151526
55	0x3daec3f9	0.085334726
56	0x3abb145d	0.0014273037
57	0xbe434e41	-0.1907282
58	0xbe32ec29	-0.174729
59	0xbdf40a53	-0.11916032
60	0x3da1ef06	0.07906918
61	0x3d9e15ea	0.077190235
62	0xbd98ff6d	-0.074705936
63	0xbdf3aa8e	-0.11897765
64	0xbdfa589f	-0.122239344
65	0x3d93c186	0.07214646
66	0x3d864da3	0.06557777
67	0xbd502911	-0.050820414
68	0xbd275ed1	-0.04086191
69	0x3d9d773b	0.07688757
70	0xbd7038d8	-0.05864796
71	0xbdafd1fc	-0.08584973
72	0xbd92a8b2	-0.07161082
73	0x3c696fba	0.014247829
74	0xbdcd3799	-0.1002037
75	0x3da2b318	0.07944316
76	0xbb66c399	-0.00352118
77	0xbd07ee45	-0.033186216
78	0x3ce1cf4b	0.027564665
79	0xbd3561dc	-0.04428278
80	0x3cff6d11	0.031179937
81	0x3e5b0f35	0.2139252
82	0xbe0902ca	-0.1337997
83	0xbc6d3f21	-0.014480383
84	0xbc9a98bf	-0.018871663
85	0xbdb619c8	-0.08891636
86	0xbded020e	-0.115726575
87	0x3d8fd623	0.07023265
88	0x3d56faea	0.052485384
89	0xbe8add09	-0.2712176
90	0xbe057cff	-0.13035963
91	0xbcbecf9b	-0.023292353
92	0xbd31c757	-0.043402996
93	0xbc07c142	-0.008285822
94	0x3dbc9a5f	0.092091314
95	0xbd63c401	-0.055606846
96	0xbd95803f	-0.072998516
97	0xbcb2f7d0	-0.021846682
98	0x3c636648	0.013879366
99	0x3b78d7bc	0.0037970385
100	0xbc69b0d2	-0.014263349
101	0xbe346f0b	-0.17620485
102	0xbccf1ae4	-0.025281377
103	0xbe517720	-0.20455599
104	0xbd487914	-0.048943594
105	0xbe201883	-0.1563435
106	0xbe03f40b	-0.12886064
107	0x3deaccd6	0.114648506
108	0x3e42f38d	0.1903822
109	0x3d322741	0.043494467
110	0x3daec9f0	0.0853461
111	0x3dd20992	0.10255732
112	0xbd81f41a	-0.06345387
113	0xbdec412d	-0.11535869
114	0xbc6b7e84	-0.014373425
115	0xbc9e5e27	-0.019332005
116	0x3d6a49f7	0.057199445
117	0x3dd856a2	0.10563399
118	0x3d835d5b	0.064142905
119	0xbd6a89b8	-0.057260245
120	0x3d39661a	0.045263387
121	0x3cb25ba4	0.021772213
122	0xbe4d3ac3	-0.20041947
123	0xbe0c9d7e	-0.13731954
124	0x3c56fe88	0.013122208
125	0xbdd84f98	-0.10562056
126	0xbd8d76b9	-0.0690741
127	0xbe111afa	-0.14170447
128	0x3d904bed	0.07045732
129	0xbcbe9e8d	-0.023268962
130	0x3c07d53a	0.008290583
131	0xbe08957a	-0.13338271
132	0xbb6dcf2e	-0.0036286819
133	0x3dfda6b9	0.123853154
134	0xbdb2c72c	-0.08729395
135	0xbdc81fed	-0.09771714
136	0x3dff6823	0.124710344
137	0xbda15ca1	-0.07878996
138	0xbde4d514	-0.11173454
139	0xbdb35756	-0.087568924
140	0xbdae4e44	-0.08511022
141	0x3c33ad56	0.0109666195
142	0x3df8cc69	0.12148363
143	0x3dcf5ee9	0.101255246
144	0xbd5a2f5f	-0.053267833
145	0x3d5564d0	0.052098095
146	0xbceca02e	-0.028884973
147	0x3da7e859	0.08198614
148	0x3da11459	0.07865209
149	0x3d2d6a15	0.042337496
150	0xbe3acd5c	-0.18242401
151	0x3bf66937	0.007519867
152	0x3de9e17d	0.114199616
153	0xbc6f5ce1	-0.014609546
154	0xbdb29b58	-0.08721036
155	0xbe034c01	-0.12821962
156	0xbdf60d58	-0.12014264
157	0x3d9366bb	0.07197329
158	0x3e136a9a	0.14396134
159	0xbdcda7c8	-0.10041767
160	0x3de0d8d6	0.10978858
161	0x3da4b452	0.08042206
162	0xb9883f2c	-0.00025987008
163	0xbda5931e	-0.08084701
164	0x3e415f0b	0.18883912
165	0xbe8c102d	-0.2735609
166	0xbdf15531	-0.11783827
167	0xbd8b6222	-0.06805827
168	0x3d8089d3	0.06276288
169	0xbdfaed25	-0.12252263
170	0xbe133ef8	-0.1437949
171	0xbd9e4b8f	-0.077292554
172	0xbd618f4d	-0.055068303
173	0x3c977c12	0.018491779
174	0x3b507e07	0.00318134
175	0x3d398e98	0.045302004
176	0xbdace3b3	-0.08441868
177	0xbdca0bb8	-0.098655164
178	0x3e61a058	0.22033823
179	0xbd8d52d5	-0.069005646
180	0x3e02fb54	0.12791187
181	0xbd8a6b41	-0.06758738
182	0xbd8838a1	-0.06651426
183	0x3d08ee4e	0.03343039
184	0xbbf179f4	-0.0073692743
185	0x3cca56fb	0.024699679
186	0xbc97e98a	-0.018543977
187	0x3d849543	0.06473782
188	0x3e2a24d8	0.16615617
189	0x3d6ae70c	0.05734925
190	0xbd2ad424	-0.04170622
191	0x3d332063	0.04373206
192	0x3dea09b7	0.11427634
193	0x3d03e37e	0.032199375
194	0x3d55a637	0.052160468
195	0xbd505fb6	-0.050872527
196	0x3c6cb855	0.014448245
197	0x3d186f24	0.037215367
198	0x3c35981f	0.011083632
199	0x3ca03ca5	0.019560168
200	0xbda4bd5b	-0.08043929
201	0x3ca8c889	0.020603435
202	0xbdbe272c	-0.09284815
203	0x3d12ad44	0.03580977
204	0x3d9eceb8	0.07754272
205	0xbe168d90	-0.1470244
206	0x3da8578c	0.08219823
207	0xbe5c8591	-0.21535327
208	0x3d76b6a5	0.060232777
209	0xbd8d49c2	-0.06898834
210	0xbdd85699	-0.10563392
211	0x3dd7b633	0.105327986
212	0x3de6bcb6	0.112664625
213	0x3cc1b6be	0.023646709
214	0xbe63fa4e	-0.22263452
215	0xbd9c0f40	-0.07620096
216	0xbb7b15ac	-0.0038312478
217	0x3de0b9e6	0.10972957
218	0xbdbaf655	-0.09129015
219	0xbd622240	-0.055208445
220	0xbe2153d4	-0.15754634
221	0x3d06aaf4	0.032877877
222	0xbd605887	-0.054771926
223	0x3c751e49	0.014960834
224	0x3e102b40	0.14078999
225	0x3c05ba68	0.0081621185
226	0xbde6b5fe	-0.11265181
227	0xbdba176f	-0.09086501
228	0xbddf8d3c	-0.1091561
229	0x3e269da1	0.16271068
230	0x3c86c1bc	0.016449802
231	0x3d492a83	0.049112808
232	0xbcd42cf7	-0.025900347
233	0xbe9a6054	-0.30151618
234	0xbdce0f07	-0.1006146
235	0xbdf54002	-0.11975099
236	0xbd1d7bd7	-0.03844818
237	0x3d2c4ae7	0.04206362
238	0xbd6782ca	-0.056521215
239	0xbc6ad096	-0.014331957
240	0x3dd433ff	0.1036148
241	0x3c0e9b84	0.00870407
242	0x3bd05e6a	0.0063589113
243	0xbdd330c8	-0.10312039
244	0xbd422149	-0.047395024
245	0xbc8d2ad8	-0.017232344
246	0xbe27f457	-0.16401802
247	0xbd7efffd	-0.06225585
248	0xbc6cebf9	-0.014460557
249	0x3d22a89d	0.039711583
250	0x3ba10637	0.004914071
251	0xbdca48b6	-0.0987715
252	0xbde5b6be	-0.11216496
253	0x3e3ffab0	0.18747973
254	0xbd8e25a0	-0.0694077
255	0xbe363706	-0.17794427

network_body._body_endoder.seq_layers.2.bias f4 [128]
0	0xbdf17fc9	-0.11791951
1	0xbd18e7a4	-0.037330285
2	0x3d1c78a5	0.038200993
3	0xbda1cd5b	-0.079004966
4	0x3d2d0429	0.042240296
5	0x3c48d48e	0.012257708
6	0xbd95ce06	-0.073146865
7	0x3c958771	0.01825306
8	0xbcbeeb45	-0.023305545
9	0x3d9a1177	0.075228624
10	0xbd8e43f2	-0.06946553
11	0x3d2ae9f4	0.04172702
12	0x3bb89bc0	0.005633801
13	0x3d779b1f	0.06045067
14	0xbd3daa26	-0.046304844
15	0xbd94dc2a	-0.072685555
16	0x3c63dca4	0.013907585
17	0x3a55041d	0.0008125918
18	0x3ce444a8	0.02786477
19	0x3cc87da2	0.024473969
20	0x3d244fd7	0.040115204
21	0xbd19a4a7	-0.03751054
22	0xbda053c4	-0.07828477
23	0xbd9eaf15	-0.07748238
24	0x3cebd235	0.028786758
25	0x3d4875aa	0.04894034
26	0xbde54233	-0.11194267
27	0x3ce7c24f	0.028290896
28	0xbd72e8b6	-0.05930396
29	0x3c063a0a	0.0081925485
30	0xbc79aa73	-0.015238392
31	0xbdcc2639	-0.09968228
32	0xbd3b9a7d	-0.04580163
33	0xbdc34ff3	-0.095367335
34	0xbd65447e	-0.055973522
35	0xbc64a917	-0.01395633
36	0xbcec5e05	-0.028853426
37	0xbda0194f	-0.07817327
38	0x3c0a7ff1	0.008453355
39	0xbdce624a	-0.10077341
40	0x3d04a2dc	0.032381877
41	0xbcde09ac	-0.027104221
42	0xbe054d93	-0.13017873
43	0xbdb356c4	-0.087567836
44	0xbd41a058	-0.047272056
45	0x3bfa178b	0.007632201
46	0xbb8f27bc	-0.0043687504
47	0xbcbb46f5	-0.022860983
48	0x3cdcce50	0.026953846
49	0x3c80f4a2	0.01574165
50	0x3d84ba93	0.06480899
51	0xbd6c9a06	-0.057764076
52	0xbd83d44e	-0.06436978
53	0xbdc3ab8c	-0.09554204
54	0x3d45230e	0.048129134
55	0xbdb2c42c	-0.08728823
56	0x3c89a3fc	0.016801827
57	0xbddec997	-0.10878294
58	0xbbca20dc	-0.006168468
59	0xbdc65ce5	-0.09685687
60	0xbc3c9f21	-0.011512549
61	0x3cef12f5	0.029183844
62	0x3d0563e9	0.032565985
63	0xbd51fe7b	-0.051268082
64	0x3d12ff9b	0.035888296
65	0xbd0b48c4	-0.03400494
66	0xbd18b267	-0.037279513
67	0x3ceb33ad	0.028711164
68	0x3c343ee2	0.011001321
69	0x3c8e83ef	0.017396895
70	0xbc6fa925	-0.01462773
71	0x3ce9ccaa	0.028539974
72	0x3bb646cb	0.0055626384
73	0xbd586c7d	-0.052837837
74	0x3d654a4f	0.05597907
75	0x3ad2fc6e	0.0016096958
76	0x3d3e79a0	0.04650271
77	0x3c32ccb6	0.010913065
78	0xbd86db3e	-0.06584786
79	0xbd135b2a	-0.035975613
80	0x3d8136da	0.0630929
81	0xbdbe722f	-0.092991225
82	0x3bf1fa16	0.007384549
83	0xbd77ac6b	-0.060467165
84	0x3d1fb89b	0.038994413
85	0xbd90fedb	-0.0707986
86	0x398ce461	0.00026873036
87	0xbd761c24	-0.06008543
88	0xbdb7a824	-0.08967617
89	0xbcfa3b60	-0.03054589
90	0xbdb30ec9	-0.087430544
91	0xbd9af5c0	-0.07566404
92	0x3d392479	0.0452008
93	0xbd5d8d3e	-0.054089777
94	0xbdabe168	-0.08392602
95	0x3cb6750b	0.022272607
96	0xbbbbf8be	-0.0057364395
97	0x3cec8a94	0.028874673
98	0xbd15376d	-0.03642981
99	0xbc193ed1	-0.0093533555
100	0xbdbe385a	-0.09288092
101	0x3d376e5c	0.04478298
102	0x3cf7de48	0.03025736
103	0xbd7eea01	-0.062234882
104	0xbd1030d3	-0.035202812
105	0x3cc37a8a	0.023862142
106	0xbc27a94b	-0.010233234
107	0xbd7a4d60	-0.061108947
108	0x3c8c0d83	0.017096287
109	0xbdb370c5	-0.087617435
110	0xbbb58dfe	-0.0055406084
111	0xbdd0fa12	-0.10203947
112	0xbd40a32e	-0.04703062
113	0xbdcb527e	-0.099278435
114	0xbddcc8bc	-0.107804745
115	0xbcc93f75	-0.024566391
116	0xbdce1c5f	-0.10064005
117	0xbd03cc20	-0.03217709
118	0x3d771d3c	0.060330614
119	0xbcee50c7	-0.029091252
120	0xbc4a96ef	-0.012365087
121	0xbd85c90f	-0.065324895
122	0x3d98ec76	0.07466976
123	0x3bea06dc	0.007141931
124	0xbcb1299b	-0.021626284
125	0xbd173510	-0.03691584
126	0xbd151f74	-0.03640695
127	0x3cf81603	0.030283934

action_model._continuous_distribution.log_sigma f4 [1, 2]
0	0xbf2a836e	-0.66606796
1	0xbf35d497	-0.7102751

action_model._continuous_distribution.mu.weight f4 [2, 128]
0	0xbc9011c3	-0.017586594
1	0x3b3e368f	0.0029024219
2	0x3da51860	0.0806129
3	0xbd3a99ec	-0.045556948
4	0x3d605252	0.054766007
5	0xbc1c1c81	-0.00952828
6	0xbda93db9	-0.08263726
7	0xbb5a1e7f	-0.0033282337
8	0xbb75502b	-0.0037431817
9	0x3d3fb015	0.046798784
10	0xbd202598	-0.039098352
11	0x3b977546	0.0046221344
12	0x3d4ccd1c	0.050000295
13	0x3c9a5c0e	0.018842723
14	0xbaa03771	-0.0012223554
15	0xbc3c5c82	-0.011496665
16	0x3c43b9ca	0.011946151
17	0x3c0866d9	0.008325302
18	0x3c24f332	0.010067748
19	0x3d15f87b	0.036613923
20	0x3da23503	0.079202674
21	0xbc257ae3	-0.010100099
22	0xbd6b85e6	-0.057500742
23	0x3c6b43e4	0.014359448
24	0x3d892cd6	0.06698005
25	0x3d996ee0	0.07491851
26	0xbd2bf6b7	-0.041983332
27	0xbc373dc9	-0.011184164
28	0xbbcb6f65	-0.0062083476
29	0x3d450c08	0.048107177
30	0x3c4e388e	0.012586726
31	0xbd88e457	-0.06684177
32	0xbd1f9a7f	-0.0389657
33	0x3cf43667	0.029811097
34	0xbdd7d3a5	-0.10538415
35	0xbb65214c	-0.0034962473
36	0xbd8d2567	-0.068918996
37	0xbd342e3d	-0.04398941
38	0xbc6e4649	-0.0145431245
39	0xbd36254d	-0.044469167
40	0x3a20f1a2	0.0006139522
41	0xbbea3821	-0.0071478044
42	0xbd902a4d	-0.07039318
43	0xbc8abf16	-0.01693682
44	0xbd9476e2	-0.072492376
45	0x3d3fd4b4	0.04683371
46	0x3e0a242b	0.1349036
47	0xbd1090e3	-0.035294425
48	0xbc9fe483	-0.019518143
49	0x3ac96dab	0.0015367767
50	0x3aba6132	0.001421964
51	0xbc20a8db	-0.009805883
52	0xbc0ac6ed	-0.008470279
53	0xbd96902a	-0.07351716
54	0x3d2af5ab	0.041738193
55	0xbc14f5ab	-0.009091775
56	0x3c5f8a43	0.013643804
57	0xbd92dad1	-0.07170642
58	0x3e09c21f	0.13452958
59	0xbd583825	-0.05278792
60	0x3cc59f48	0.024123803
61	0xbc1b8854	-0.009492952
62	0x3d1240a2	0.03570617
63	0xbc29bdf0	-0.010360226
64	0x3dc982d1	0.098394044
65	0xbdd8e7a4	-0.10591057
66	0x3cc3c20f	0.023896245
67	0x3c3bc7e5	0.011461233
68	0x3d2742f6	0.040835343
69	0x3d16c8c5	0.036812562
70	0xba7092ee	-0.00091771677
71	0x3e2332c0	0.15937328
72	0x3c1fa58f	0.009744062
73	0xbda8e0e3	-0.08246019
74	0x3d68a86e	0.056801252
75	0x3d7e69c7	0.062112596
76	0x3c7faf08	0.015605696
77	0xbdc460e2	-0.095887914
78	0xbcadb155	-0.021202723
79	0x3d1f6a3b	0.03891967
80	0x3d9ac70a	0.07557495
81	0xbcd658cd	-0.02616539
82	0x3ae6ca94	0.001760798
83	0xbd91c6a1	-0.071179636
84	0xba290def	-0.00064489146
85	0xbba7d64b	-0.0051219813
86	0xbbbd5f9b	-0.0057792193
87	0xbc3b039e	-0.011414437
88	0x3c3abfce	0.011398269
89	0xbd8e8304	-0.06958583
90	0xbd817190	-0.063204885
91	0xbdaf5fa3	-0.08563163
92	0x3d9e5829	0.07731659
93	0xba6933e0	-0.00088959746
94	0xbac985a5	-0.0015374912
95	0x3bb72c01	0.0055899625
96	0xbbc29807	-0.005938533
97	0x3ca5b6bf	0.020228742
98	0xbde76f20	-0.11300492
99	0x3d177a62	0.036981948
100	0xbc0fce36	-0.008777192
101	0x3ca924e4	0.020647474
102	0x3e266616	0.1624988
103	0xbdbad6a3	-0.0912297
104	0x3cccb0ac	0.024986587
105	0x3b0e38fb	0.0021701443
106	0xba663361	-0.000878146
107	0xbdb7af65	-0.08969001
108	0xbc16a37c	-0.009194251
109	0xbb3b8c2b	-0.0028617482
110	0xbc753b78	-0.014967792
111	0xbdc50a61	-0.0962112
112	0xbd9d7881	-0.07689
113	0xbd9110c1	-0.07083274
114	0xbd27d723	-0.040976655
115	0xbc0a30b0	-0.00843446
116	0xbd9412ac	-0.07230124
117	0x3bb397bc	0.0054807346
118	0x3e091886	0.13388261
119	0xbc6c1d69	-0.014411309
120	0xbb042acc	-0.002016711
121	0xbb65fa06	-0.0035091653
122	0x3d9472da	0.07248469
123	0xbc94b766	-0.018153857
124	0xbd830e79	-0.06399245
125	0xbd9e343b	-0.07724806
126	0xbb02193b	-0.0019851464
127	0x3af06df4	0.0018343315
128	0xbc3fb313	-0.011700409
129	0xbd3a5a80	-0.045496464
130	0xba0ceb0a	-0.00053756
131	0xbd3df412	-0.04637534
132	0x3c1fd0c5	0.009754364
133	0x3c9de43b	0.019273868
134	0xbd33e36c	-0.04391806
135	0x3b0cb992	0.0021472913
136	0xbd68464e	-0.056707673
137	0x3cdbb6b8	0.026820526
138	0xbdb493d6	-0.0881726
139	0xbc13510b	-0.00899149
140	0x3c8ff1b4	0.017571308
141	0x3d2a2fe4	0.04154958
142	0xbba4315b	-0.0050107664
143	0xbccd52e3	-0.025063938
144	0xbb8998f4	-0.0041991416
145	0x3bdc7d0a	0.006728773
146	0x3b32946f	0.0027249118
147	0x3d43e3f6	0.047824822
148	0xba2e379a	-0.00066458585
149	0x3c85a701	0.016314985
150	0xbcaad2b9	-0.020852434
151	0xbb11fb9a	-0.002227521
152	0xbbc2a6e2	-0.005940304
153	0x3ce628bb	0.028095594
154	0xbdb50815	-0.08839432
155	0xbc3a3133	-0.011364269
156	0x3b0f9b72	0.002191272
157	0x3c59e7d5	0.013299902
158	0xbcbd2d0c	-0.02309277
159	0xbb8eaa3d	-0.00435379
160	0xbd6a971e	-0.057273023
161	0xbcff2789	-0.031146782
162	0xbd471b81	-0.048610214
163	0xbb3d2fcd	-0.0028867603
164	0x3d44c607	0.048040416
165	0xbd4f24bf	-0.050572153
166	0x3cb0ccb5	0.021581987
167	0xbd1d3152	-0.038377114
168	0x3ad1963b	0.0015990207
169	0xbaa8bff5	-0.001287459
170	0xbd14196d	-0.03615706
171	0x3b754b6e	0.0037428993
172	0x3ce35b53	0.027753508
173	0xbdcdf2da	-0.10056086
174	0xbd9b5f22	-0.075865045
175	0xbb8cba30	-0.004294656
176	0xbc7c65e4	-0.015405152
177	0x3b40b8ab	0.0029406946
178	0x3ba6192a	0.0050689178
179	0xbc5414a9	-0.012944379
180	0xbd3f344a	-0.046680726
181	0xbd0a2c73	-0.033733796
182	0x3cda1246	0.026620042
183	0xbd524f6a	-0.051345266
184	0xbc4b122e	-0.012394471
185	0xbc01fa61	-0.00793323
186	0xbd544420	-0.05182278
187	0xbd593aa8	-0.053034455
188	0xba07456c	-0.0005160186
189	0x3d4d562b	0.050131004
190	0x3ce1d813	0.027568853
191	0xbc2e46b9	-0.010636979
192	0xbbc895b8	-0.0061213635
193	0xbb3f2499	-0.00291661
194	0xbcf94344	-0.030427583
195	0x3cf30886	0.02966715
196	0xbcfac5d1	-0.030611904
197	0xbcdebaae	-0.027188625
198	0xbbdc023f	-0.006714135
199	0x3c6af4f8	0.014340632
200	0xbd2394bc	-0.039936766
201	0xbd89d883	-0.067307495
202	0x3c961f0d	0.018325353
203	0xbd6ca322	-0.057772763
204	0x3d1b9323	0.037982117
205	0x3dd0af10	0.101896405
206	0xbc212f08	-0.009837873
207	0xbd82dc2e	-0.06389652
208	0x3c9e64ec	0.019335233
209	0x3ba06a19	0.0048954603
210	0xbab03769	-0.0013444248
211	0xbd82d883	-0.063889526
212	0xbc2b377d	-0.010450241
213	0xbcabc2da	-0.020966936
214	0xbc4cde15	-0.01250412
215	0x3cdca0eb	0.0269322
216	0xbc0cc55b	-0.008591975
217	0xb8ea1fc3	-0.000111639056
218	0xbca9c70a	-0.020724792
219	0x3cf42fbe	0.029807921
220	0xbd2d3f65	-0.042296786
221	0xbc95ec12	-0.018301044
222	0xbcd29534	-0.025705911
223	0x3ba46079	0.0050163832
224	0x3c7fd5d9	0.01561495
225	0x3cb4f185	0.022087822
226	0x3c93babe	0.018033382
227	0xbb3dbd96	-0.0028952113
228	0xbc5ea115	-0.01358821
229	0x3d2ed92c	0.04268758
230	0xbce395e0	-0.027781427
231	0x3d2fa543	0.042882215
232	0xbb2b8377	-0.0026170888
233	0xbb4bb56d	-0.003108348
234	0xbb8260bc	-0.003978817
235	0x3ccc76cc	0.02495899
236	0xbd105994	-0.03524168
237	0xbcd9f125	-0.026604244
238	0x3d1a0264	0.037599936
239	0xbd434a3f	-0.04767823
240	0x3d9a9c85	0.07549385
241	0xbcdbdc6e	-0.026838508
242	0xba930ada	-0.0011218444
243	0xbbacad28	-0.0052696653
244	0xbc424a1a	-0.0118584875
245	0xbc486628	-0.012231387
246	0xbd8b0100	-0.067873
247	0xbcfd4116	-0.030914824
248	0xbc459c88	-0.012061246
249	0xbbc3696b	-0.0059634945
250	0x3d7d0885	0.061775703
251	0x3d03989a	0.032127954
252	0x3d1185bd	0.035527933
253	0xbc858211	-0.016297372
254	0xbc03b19b	-0.00803795
255	0x3c0fe128	0.008781709

action_model._continuous_distribution.mu.bias f4 [2]
0	0x3d558563	0.05212916
1	0x3c9919f4	0.018689133

onnx::Div_61 f4 [35]
0	0x3eaaf4b3	0.33389816
1	0x3e904849	0.2818015
2	0x3ee5b72f	0.4486632
3	0x3e7b8dda	0.24565831
4	0x3e926ecf	0.28600165
5	0x3ea01a68	0.31270146
6	0x3e87c246	0.26515406
7	0x3ee344a7	0.44388315
8	0x3efeff50	0.49804163
9	0x3edd6e7e	0.4324836
10	0x3eabc145	0.3354589
11	0x3e91718f	0.2840695
12	0x3ed3529d	0.41273966
13	0x3b79ec93	0.0038135394
14	0x3e84ac4b	0.259127
15	0x3d9553f4	0.072914034
16	0x3daf9440	0.08573198
17	0x3ed52865	0.4163238
18	0x3ed0ab3d	0.40755644
19	0x3ecd400b	0.40087923
20	0x3ea60200	0.324234
21	0x3e8a90f6	0.2706372
22	0x3ecc65c6	0.39921397
23	0x3a30b96d	0.0006741498
24	0x3e354a8e	0.17704222
25	0x3b8f27cb	0.0043687574
26	0x3d2b7f97	0.041869726
27	0x3d3ef1fe	0.0466175
28	0x3ca46f13	0.020072496
29	0x3cbbd05b	0.0229265
30	0x3e92e970	0.28693724
31	0x3e62a6df	0.22133969
32	0x3eb2cfed	0.3492426
33	0x3a30b96d	0.0006741498
34	0x3d89e6ca	0.06733473

onnx::Div_64 f4 [32]
0	0x3ddf1225	0.10892133
1	0x3ce9a4bf	0.02852094
2	0x3fd97446	1.6988609
3	0x3eaa6ffa	0.33288556
4	0x3d663929	0.056206856
5	0x3b3fef36	0.0029286868
6	0x3efff62e	0.49992508
7	0x3dab24a6	0.083565995
8	0x3d602756	0.054725014
9	0x3f1ee8dd	0.6207407
10	0x3bbfcb03	0.0058530583
11	0x3d602756	0.054725014
12	0x3d9a19a0	0.07524419
13	0x3bbfcb03	0.0058530583
14	0x3d602756	0.054725014
15	0x3d9a19a0	0.07524419
16	0x3d64fdd6	0.05590614
17	0x3a74f177	0.00093438424
18	0x3fe0d8de	1.7566183
19	0x3b085d13	0.002080743
20	0x3a450875	0.0007516214
21	0x3a30c78b	0.00067436014
22	0x3f000015	0.50000125
23	0x3a5b1d7b	0.000835858
24	0x3a440725	0.0007477871
25	0x3b749daa	0.003732542
26	0x3a30f432	0.0006750255
27	0x3a440725	0.0007477871
28	0x3a53be83	0.00080773997
29	0x3a30f432	0.0006750255
30	0x3a440725	0.0007477871
31	0x3a53be83	0.00080773997
